model-weights.pth (torch, 807897 bytes, 3 tensors)

clstm.cell_list.0.conv.weight f4 [256, 87, 3, 3]
0	0xbc99f544	-0.01879371
1	0xbdf1cf46	-0.118071124
2	0xbda1a4fe	-0.07892798
3	0xbdd8b5ad	-0.10581527
4	0xbdaf606b	-0.08563312
5	0xbe57d136	-0.21075901
6	0x3d207b71	0.039180223
7	0xbcc4197c	-0.023937933
8	0xbd765ed5	-0.060149033
9	0xbd8f0f17	-0.069853
10	0xbd408ee8	-0.047011286
11	0xbd516daf	-0.051129993
12	0x3c35dbbd	0.011099753
13	0x3c7a3536	0.015271476
14	0xbcfdcb1d	-0.030980641
15	0x3d7c147d	0.061542977
16	0x3d18f5b6	0.037343703
17	0x3c582401	0.013192178
18	0xbcd23606	-0.025660526
19	0x3d1b354c	0.037892625
20	0x3c0444ae	0.008073015
21	0xbccc6f4c	-0.024955414
22	0x3ccf9b3b	0.025342574
23	0xbc8405cb	-0.016116044
24	0xbd86b93f	-0.06578302
25	0x3be2c80a	0.006920819
26	0x3c56d73a	0.013112837
27	0xbcd675a4	-0.026179142
28	0xbc9eba39	-0.019375907
29	0xbda6d6c6	-0.081464335
30	0x3c9a4885	0.018833408
31	0x3cdf21f9	0.02723788
32	0x3cd70492	0.026247296
33	0xbbdf575f	-0.0068158354
34	0x3d060337	0.03271791
35	0x3c75dbdc	0.015006032
36	0xbd98e0df	-0.07464766
37	0xbe0285cc	-0.12746352
38	0xbdafc671	-0.085827716
39	0xbd823b88	-0.06359011
40	0xbd11fc89	-0.035641227
41	0xbd25dbdc	-0.040492877
42	0xbd234be7	-0.039867308
43	0xbc0c07ea	-0.008546809
44	0xbda94d2e	-0.08266674
45	0x3e02d237	0.12775503
46	0x3e253f20	0.16137362
47	0x3e31fdd8	0.1738199
48	0x3e86e9d4	0.26350272
49	0x3e83112c	0.2559904
50	0x3e697e21	0.2280202
51	0x3eaac527	0.3335354
52	0x3e962d1e	0.29331297
53	0x3e508c57	0.20366035
54	0xbd8fcbd1	-0.07021297
55	0xbcfa5bb2	-0.030561302
56	0xbd4f920e	-0.050676398
57	0xbd324731	-0.043524925
58	0xbcd565ac	-0.026049457
59	0xbd938cc4	-0.07204583
60	0xbd86d78a	-0.065840796
61	0xbd39c3c1	-0.0453527
62	0xbd776b5c	-0.06040512
63	0x3e2cd759	0.16879024
64	0x3e2e14d2	0.1700013
65	0x3e492808	0.19644177
66	0x3e1fcb16	0.15604815
67	0x3e25862e	0.16164467
68	0x3e5b53ba	0.21418658
69	0x3e5a8026	0.21337947
70	0x3e1c7f4c	0.15282935
71	0x3e2ce2c0	0.16883373
72	0xbc7cb750	-0.0154245645
73	0x3ccbba93	0.024869239
74	0x3c2781f7	0.010223857
75	0x3bc6e4cf	0.0060697566
76	0x3c9bf16e	0.019036021
77	0x3cd0220e	0.025406864
78	0xbc863a23	-0.016385144
79	0xbbe5ecbb	-0.007016746
80	0xbc01e9f5	-0.007929315
81	0xbc6b9f5d	-0.014381257
82	0xbcb0681c	-0.021534018
83	0xbc727f46	-0.014800852
84	0xbc542503	-0.012948277
85	0x3c1d42ee	0.009598477
86	0xbc1fdcd7	-0.009757242
87	0x3cd79e8a	0.026320715
88	0x3cd78165	0.026306817
89	0x3d0e83c6	0.034793638
90	0xbcb9782d	-0.022640312
91	0x3d014b2b	0.031565826
92	0xbd0d26f3	-0.034460973
93	0xbbbe7ea9	-0.005813439
94	0x3b7a71c3	0.003821478
95	0x3cc0439c	0.023469739
96	0x3cd3ca39	0.025853263
97	0x3ce9f843	0.028560763
98	0xbbac9a4c	-0.005267417
99	0x3a945894	0.0011317902
100	0x3cfee4da	0.031114984
101	0x3c55d7ef	0.013051971
102	0x3d91b256	0.07114093
103	0x3d1bf8ea	0.03807918
104	0x3d5063be	0.05087637
105	0x3d0d4b93	0.0344959
106	0x3cd48e0d	0.025946641
107	0x3cb55b4b	0.022138258
108	0x3db63cb0	0.08898294
109	0xbda7f7de	-0.08201574
110	0xbe00cf97	-0.12579189
111	0x3bedff8b	0.007263129
112	0x3e3021c6	0.17200384
113	0x3c5fd672	0.013661968
114	0x3e272723	0.16323523
115	0x3e1f04d5	0.15529187
116	0x3e4b3a9b	0.19846575
117	0x3d4c090c	0.049813315
118	0xbd0dc82a	-0.03461472
119	0xbd8f5b2f	-0.06999814
120	0x3da430c5	0.080171145
121	0x3d739744	0.05947043
122	0x3e268950	0.16263318
123	0xbd16ba18	-0.036798567
124	0x3e1a5092	0.15069798
125	0x3e81ed12	0.25376183
126	0x3c42d36c	0.011891227
127	0x3d719077	0.058975663
128	0x3d38c1df	0.045106765
129	0xbcfa7e87	-0.030577911
130	0x3ca745d6	0.020419043
131	0xbc055ab8	-0.008139305
132	0xbca6636b	-0.020311078
133	0xbc4e9043	-0.012607637
134	0x3ce485da	0.027895857
135	0x3d8feaaf	0.07027184
136	0x3d959302	0.0730343
137	0x3db63b59	0.088980384
138	0x3db2b694	0.0872623
139	0x3d8f5214	0.06998077
140	0x3d8f126b	0.06985935
141	0x3ce125bb	0.027483812
142	0x3d523182	0.051316746
143	0x3d38ee5a	0.045149185
144	0xbdfd67d1	-0.12373317
145	0xbdf7e578	-0.121043146
146	0xbe6757d6	-0.225921
147	0xbe081908	-0.13290799
148	0xbdd241d0	-0.10266459
149	0xbde8b99d	-0.11363528
150	0xbc86a3ea	-0.016435582
151	0xbe0bd21b	-0.13654368
152	0xbe5d4912	-0.21609905
153	0x3ec5eaca	0.38655692
154	0x3efdf379	0.49599817
155	0x3ed7b10a	0.42127258
156	0x3eca8ce3	0.39560613
157	0x3f07a87b	0.52991456
158	0x3f00dba5	0.5033515
159	0x3efdb5b4	0.4955269
160	0x3f0c0c9c	0.5470674
161	0x3f062632	0.5240203
162	0x3e0750c7	0.13214408
163	0x3e4303a2	0.19044355
164	0x3e2de374	0.16981298
165	0x3dc2087b	0.09474274
166	0x3e2d92eb	0.16950576
167	0x3e3f7bb5	0.18699534
168	0x3cc53648	0.024073735
169	0x3dea902a	0.11453278
170	0x3e1771dd	0.14789529
171	0xbe50ff95	-0.20409997
172	0xbe399c2c	-0.18125981
173	0xbe3da466	-0.18519744
174	0xbe548f36	-0.20757756
175	0xbe6222c5	-0.22083576
176	0xbe463653	-0.1935666
177	0xbe30ecfb	-0.17277901
178	0xbe360cce	-0.17778322
179	0xbe68dca2	-0.22740415
180	0xbda09122	-0.07840182
181	0xbcc06038	-0.02348338
182	0xbd8de58a	-0.06928547
183	0xbc3537de	-0.011060683
184	0x3c2493ee	0.010045035
185	0xbd0c5304	-0.034258857
186	0x3ba4e4ad	0.005032143
187	0xbc6dd386	-0.014515763
188	0xbd4ad2fe	-0.049517624
189	0xbec6f194	-0.38856184
190	0xbd9a0805	-0.07521061
191	0xbed1b9bd	-0.4096202
192	0x3dc6ef51	0.09713615
193	0x3e49a432	0.19691542
194	0xbe85ee90	-0.2615857
195	0xbf1567a7	-0.58361286
196	0xbe1f488e	-0.15555021
197	0xbf39f24a	-0.7263533
198	0xbf6804d0	-0.90632343
199	0xbeee6fa7	-0.4656956
200	0xbe84770b	-0.25872073
201	0xbdd10fbe	-0.10208081
202	0xbcd173f6	-0.02556799
203	0xbf289291	-0.6584864
204	0xbeb1f87f	-0.347599
205	0xbdb49f03	-0.088193916
206	0xbf9bdb4a	-1.2176297
207	0x3cb42a11	0.021992715
208	0x3d5a6c9e	0.05332624
209	0xbe3aeea7	-0.18255101
210	0x3e2c1a22	0.16806844
211	0x3e59a1e6	0.21253166
212	0x3cc3b809	0.023891466
213	0x3da732ec	0.081640095
214	0xbd64075a	-0.055671073
215	0xbd7b9f57	-0.061431255
216	0xbd833482	-0.064064994
217	0x3cf3f48b	0.029779693
218	0x3d24f7e4	0.04027547
219	0xbd834862	-0.0641029
220	0xbda1f7da	-0.07908602
221	0xbe26398e	-0.16232893
222	0x3d3a77a1	0.045524243
223	0xbdcad27d	-0.09903429
224	0xbe7d4ce4	-0.24736363
225	0xbedd7a12	-0.43257195
226	0xbe82470d	-0.25444832
227	0xbc376b62	-0.011195036
228	0xbea94a4d	-0.330645
229	0xbe675e04	-0.22594458
230	0xbcee73d6	-0.02910797
231	0xbe433a32	-0.19065168
232	0xbdff8449	-0.12476403
233	0x3bd6c6bd	0.006554453
234	0x3efdfcb7	0.4960687
235	0x3efb56ec	0.49089754
236	0x3f0ecee1	0.5578442
237	0x3e9af3fd	0.30264273
238	0x3ea8264d	0.3284172
239	0x3ed0d120	0.4078455
240	0x3e4256a4	0.18978363
241	0x3e92a462	0.2864104
242	0x3eee71d5	0.46571222
243	0x3e52a2bf	0.20569895
244	0x3e4a3127	0.19745313
245	0x3cf1847d	0.02948212
246	0x3e7048e9	0.23465313
247	0x3e61d39c	0.22053379
248	0x3ef45f07	0.4772875
249	0xbd8dcda9	-0.06923992
250	0x3e22824c	0.15870017
251	0x3e7ec4cd	0.24879761
252	0x3e33fa44	0.17575938
253	0x3cfee412	0.031114612
254	0xbcb47c45	-0.022031913
255	0x3e122a12	0.14273861

clstm.cell_list.0.conv.bias f4 [256]
0	0xbba6ce5e	-0.005090519
1	0x3e14f4ee	0.14546558
2	0x3c8bb9c1	0.017056348
3	0x3dae982b	0.085251175
4	0x3da25541	0.07926417
5	0xbd2b1199	-0.04176483
6	0x3c7bde26	0.0153727885
7	0x3d3b601e	0.04574596
8	0xbd90e9aa	-0.07075818
9	0xbcd35c78	-0.025800928
10	0x3d4d1db7	0.050077166
11	0xbc8482b3	-0.016175603
12	0xba99bea7	-0.0011729792
13	0x3d8aef21	0.067838915
14	0x3d59020b	0.052980464
15	0xbcd75bdf	-0.026288925
16	0xbd4e7a74	-0.05040975
17	0x3e091022	0.1338506
18	0xbbfd5e01	-0.0077321534
19	0x3cbf2973	0.023335194
20	0xbd0e6fa0	-0.034774423
21	0x3d10c075	0.03533979
22	0x3dbd7f8b	0.092528425
23	0x3d90abe0	0.070640326
24	0xbd378b46	-0.044810556
25	0x3d720344	0.059085146
26	0xbb9be25e	-0.0047572097
27	0x3c34884e	0.011018826
28	0x3e2044f9	0.15651311
29	0xbd39569e	-0.04524862
30	0x3c389031	0.011264847
31	0xbd5a7776	-0.053336583
32	0x3cd7792c	0.026302896
33	0x3c460559	0.012086236
34	0x3d614b64	0.05500354
35	0xbc756663	-0.014978024
36	0x3d8bcd24	0.06826237
37	0xbc9798ed	-0.018505538
38	0xbb2f084b	-0.0026707824
39	0xbd83f04f	-0.064423196
40	0xbd923575	-0.07139102
41	0x3aa566fc	0.0012619193
42	0xbd880dd8	-0.066432655
43	0x3c1a5226	0.009419
44	0x3d12f505	0.0358782
45	0xbd0deb1d	-0.03464805
46	0x3db89818	0.090133846
47	0x3d267913	0.04064281
48	0x3d32df9b	0.043670278
49	0x3d94e095	0.07269398
50	0xbd415bdd	-0.04720675
51	0x3e3bf4fb	0.18355171
52	0x3da1c52a	0.07898934
53	0x3d2f88e7	0.04285517
54	0xbcc6a8d5	-0.024250427
55	0x3c8fa62b	0.01753529
56	0x3ca814ad	0.020517671
57	0xbc26d2b5	-0.010182072
58	0x3d919545	0.07108549
59	0xbd2fd795	-0.042930204
60	0x3d9fd722	0.07804705
61	0xbd57d023	-0.05268873
62	0x3c181689	0.009282717
63	0x3d0838f4	0.03325744
64	0x3c8919ab	0.016735872
65	0x3d181cce	0.037136845
66	0xbd856ebc	-0.065152615
67	0xbd27ce69	-0.040968332
68	0x3d9abe5f	0.07555842
69	0x3bb798fa	0.005602953
70	0xbba3cc92	-0.004998752
71	0x3c9e5725	0.019328663
72	0x3d327689	0.043570075
73	0x3d255b72	0.040370412
74	0x3d0a264b	0.033727925
75	0xbd1bab09	-0.03800491
76	0x3b8b3338	0.004248049
77	0x3d98a0b9	0.074525304
78	0xbd2d7489	-0.042347465
79	0x3ce05d57	0.027388258
80	0xbd0cab24	-0.0343429
81	0xbb6e3b00	-0.0036351085
82	0x3c00e6ae	0.007867498
83	0x3d2286b6	0.03967925
84	0x3cf56ad3	0.029958164
85	0x3da0f5a5	0.07859353
86	0xbb2da16a	-0.0026493915
87	0x3cf22674	0.029559352
88	0xbd0a851b	-0.033818346
89	0x3dd1af42	0.10238506
90	0x3c1437bc	0.009046491
91	0x3cd1e1ea	0.02562042
92	0x3dc5789e	0.096421465
93	0x3c51da5f	0.012808411
94	0x3b66204a	0.003511446
95	0x3d3a74d8	0.045521587
96	0x3d26d2f2	0.040728517
97	0x3b8125f1	0.0039412905
98	0x3de7f4a7	0.113259606
99	0x3bf0d03b	0.0073490418
100	0x3cedd7eb	0.029033622
101	0xbd3acbe8	-0.045604616
102	0xbcc7a38b	-0.024369976
103	0x3bb461ca	0.0055048214
104	0xbd4cb10a	-0.049973525
105	0x3cb3cf44	0.021949418
106	0xbd18c1a2	-0.037294038
107	0xbcc8f366	-0.024530124
108	0x3e049c8c	0.12950343
109	0xbc8f7159	-0.017510103
110	0x3dd049dc	0.101703376
111	0x3c7c1265	0.015385245
112	0xba439064	-0.00074601755
113	0xbb60d7fd	-0.0034308427
114	0xbb29ddf9	-0.002591966
115	0x3ddc1bcc	0.10747489
116	0x3d59c6d9	0.05316815
117	0xbd9cf0f2	-0.07663144
118	0x3da1aa64	0.078938276
119	0x3d2ca3dd	0.04214846
120	0xbdb24673	-0.08704843
121	0x3d894851	0.067032464
122	0x3cefc4a1	0.029268565
123	0x3bf695e6	0.0075251935
124	0xbc8871f9	-0.016655909
125	0xbc6f9749	-0.014623472
126	0x3a952777	0.0011379559
127	0xbdb8f3a5	-0.090308465
128	0x3d18f5aa	0.03734366
129	0x3dd0fe45	0.10204748
130	0x3c2e66ad	0.010644597
131	0x3d40dc78	0.047085255
132	0x3d281f68	0.041045576
133	0x3abc7e21	0.0014380851
134	0xbc950b14	-0.018193759
135	0x3d35b477	0.044361558
136	0xbd38e647	-0.045141485
137	0xbbb82251	-0.005619325
138	0x3c970828	0.018436506
139	0xbaa23b43	-0.001237728
140	0xbd3bb0d8	-0.04582295
141	0x3d8278ff	0.063707344
142	0x3c49da82	0.012320163
143	0xbd9c5637	-0.07633632
144	0x3d554eae	0.052076988
145	0x3d46653c	0.04843639
146	0x3d0fbfd7	0.035095062
147	0x3d834b19	0.06410808
148	0x3c9905e6	0.01867957
149	0xbd29992d	-0.041405845
150	0x3d535d2c	0.051602527
151	0x3cd91013	0.026496923
152	0x3dc2dacb	0.09514388
153	0x3e0da647	0.13832961
154	0x3d02110d	0.031754542
155	0xbcab10d2	-0.020882044
156	0x3d2d3ced	0.04229443
157	0x3d131b86	0.03591492
158	0x3d8ec46e	0.0697106
159	0x3c5ae2d5	0.013359745
160	0xbcf83891	-0.03030041
161	0x3af9beb1	0.0019054023
162	0x3dae97bf	0.08525037
163	0xbacaa7dd	-0.0015461404
164	0x3d2f1f09	0.042754207
165	0xbd5f4fe0	-0.054519534
166	0xbc5c160e	-0.013432993
167	0x3c6068b4	0.013696838
168	0x3cddb214	0.027062453
169	0xbc0eb817	-0.008710883
170	0xbd06ae6d	-0.03288119
171	0x3c152796	0.009103676
172	0x3df78a09	0.12086875
173	0x3cad5875	0.021160344
174	0x3d85854f	0.06519567
175	0xbd40a386	-0.047030948
176	0xbcfe71ad	-0.031060064
177	0x3c8293ed	0.015939677
178	0xbd4739b0	-0.048639
179	0x3d753ec3	0.059874307
180	0x3e07a015	0.1324466
181	0x3d257bed	0.040401388
182	0xbd0ba1da	-0.0340899
183	0x3da793ac	0.08182463
184	0xbce032e8	-0.027368024
185	0xbc920084	-0.017822511
186	0x3d5bd66e	0.053671293
187	0x3c5e3e9b	0.013564731
188	0x3d451d2d	0.048123527
189	0x3d471589	0.048604522
190	0xbc5574ec	-0.013028365
191	0x3b2bd0a3	0.0026216886
192	0x3d02e2dc	0.03195463
193	0x3dd2c337	0.102911405
194	0xbd0c0fef	-0.034194883
195	0x3ca22f11	0.019797834
196	0x3d4dc967	0.0502409
197	0xbb0dcf4c	-0.002163845
198	0x3b2833b4	0.0025665583
199	0x3d9c4e67	0.076321416
200	0xbce2a401	-0.027666094
201	0xbd0084bf	-0.031376597
202	0xbcd7334c	-0.026269577
203	0xbd235b33	-0.039881896
204	0x3d28c84b	0.04120664
205	0x3d7964b4	0.060887054
206	0x3d551413	0.052021097
207	0x3c7097cf	0.0146846315
208	0x3ccb5682	0.024821524
209	0x3cb47f4e	0.02203336
210	0x3bf684a3	0.0075231357
211	0x3d95107a	0.07278533
212	0xbd8db0ac	-0.06918463
213	0x3d8772a9	0.066136666
214	0xbd94344e	-0.07236539
215	0xbd534573	-0.051579904
216	0x3c11a8be	0.008890329
217	0x3c2ce0a9	0.01055161
218	0x3db73916	0.08946435
219	0x3db848f8	0.08998293
220	0x3d5df152	0.05418522
221	0x3c7a9a7d	0.015295622
222	0x3d52d68c	0.05147414
223	0x3cf6ba17	0.030118031
224	0x3c8de055	0.017318884
225	0x3d3ff9cd	0.046869088
226	0x3dd5ab09	0.10433013
227	0xbd8f4dbc	-0.069972485
228	0xbc754f7c	-0.014972564
229	0x3c88fdea	0.016722638
230	0xbd084e76	-0.03327795
231	0xba4e8995	-0.00078787777
232	0xbd68c0b2	-0.056824394
233	0xbc84b5cb	-0.016199967
234	0xbcc1f1ba	-0.023674835
235	0x3d0b7e5e	0.03405606
236	0x3c866fc6	0.01641072
237	0xbd311de6	-0.043241404
238	0x3dba287f	0.09089755
239	0x3bf3a290	0.0074351504
240	0x3b54482c	0.003239165
241	0xbc32ed64	-0.010920856
242	0x3d19f19e	0.03758394
243	0x3dfe41c6	0.12414889
244	0xbd8abbd7	-0.06774109
245	0xbd65022a	-0.055910267
246	0x3c1f01a2	0.009704979
247	0x3cf6effd	0.030143732
248	0x3b2ada46	0.0026070043
249	0x3d90a7e2	0.07063271
250	0xbd85e3db	-0.065376006
251	0xbd13ac5e	-0.036053054
252	0xbccfdcc9	-0.025373833
253	0x3d71a57a	0.0589957
254	0xbb3555ed	-0.0027669624
255	0x3d5cf640	0.05394578

head.0.weight f4 [1, 64, 3, 3]
0	0xbeac91f8	-0.33705115
1	0xbdcd5eac	-0.10027823
2	0xbc8b4d8a	-0.017004747
3	0xbe1e80e0	-0.1547885
4	0xbda28422	-0.079353586
5	0x3e06984e	0.13144037
6	0x3d8bf5aa	0.06833966
7	0xbea14fca	-0.31506187
8	0xbde65801	-0.11247254
9	0xbe34efba	-0.17669573
10	0xbe33a7c2	-0.17544463
11	0x3b0af794	0.0021204697
12	0xbdce9182	-0.10086347
13	0xbe3133cd	-0.17304917
14	0xbd93ee7b	-0.07223221
15	0x3e0485b8	0.12941635
16	0xbd3a3fa9	-0.045470867
17	0xbd66e6a7	-0.05637231
18	0x3e72dfcc	0.23718184
19	0x3e7c277f	0.24624442
20	0x3e6b08f6	0.22952637
21	0x3e48691f	0.1957135
22	0x3dfca4ee	0.12336145
23	0x3e1daad5	0.15397198
24	0x3dab4c64	0.0836418
25	0x3e6102ca	0.2197372
26	0x3e82fb4f	0.25582358
27	0xbca4e033	-0.020126438
28	0xbd71c8f6	-0.059029542
29	0xbdac13ca	-0.08402212
30	0x3b9074f9	0.0044084755
31	0xbdb08d63	-0.086207174
32	0xbdb8057a	-0.089854196
33	0x3e176a10	0.14786553
34	0x3cc63327	0.024194313
35	0x3d0a769f	0.033804532
36	0xbe92b28a	-0.2865184
37	0x3dea6fce	0.11447106
38	0x3e3d2054	0.18469363
39	0xbe8ec120	-0.27881718
40	0xbd8069c2	-0.06270172
41	0x3eae9d00	0.34104156
42	0xbde932a7	-0.11386614
43	0x3e9aaf37	0.30211803
44	0x3e9ace22	0.30235392
45	0xbbf32dcf	-0.0074212323
46	0xbda1b5d6	-0.078960106
47	0x3e16bee9	0.14721264
48	0x3e042a93	0.12906866
49	0x3e1d76fc	0.1537742
50	0x3edf3591	0.43595555
51	0x3ea32fc1	0.3187237
52	0x3e7bf211	0.2460406
53	0x3e997790	0.2997403
54	0xbd7d38aa	-0.061821617
55	0x3d228354	0.039676026
56	0xbd90ec9c	-0.0707638
57	0xbddd62b6	-0.10809843
58	0xbe33fd21	-0.1757703
59	0xbe39ce73	-0.1814516
60	0xbe4b87bb	-0.19875996
61	0xbe99f3b7	-0.30068752
62	0xbe0c761f	-0.13716935
63	0xbdfad930	-0.122484565
64	0xbe83532c	-0.25649393
65	0xbf56ce6d	-0.8390873
66	0xbe94bf3b	-0.29052147
67	0xbf42ee60	-0.7614498
68	0xbf5d7942	-0.8651315
69	0xbd8b344b	-0.067970835
70	0xbeca27f7	-0.39483616
71	0xbe76bc41	-0.2409525
72	0x3e670d24	0.22563607
73	0x3e624860	0.22097921
74	0x3e54950a	0.20759979
75	0x3d186c04	0.037212387
76	0x3e1bf04c	0.15228385
77	0x3e0d5d6f	0.13805173
78	0x3e37a839	0.17935266
79	0x3e95285f	0.29132363
80	0x3d9c43db	0.0763013
81	0x3dfa57dc	0.12223789
82	0x3ea23f86	0.3168909
83	0x3e1ead0e	0.15495703
84	0x3deb3d97	0.11486357
85	0x3e1da7f3	0.15396099
86	0x3e0783e1	0.13233902
87	0x3e3e1ff2	0.18566874
88	0x3e83d493	0.2574812
89	0x3e3d5597	0.18489681
90	0x3e4d305d	0.2003798
91	0x3e360f26	0.17779216
92	0x3e7955fd	0.24349208
93	0x3ecf9e29	0.40550354
94	0x3ea47797	0.3212249
95	0x3eb1900e	0.34680218
96	0x3ecceb29	0.40023163
97	0x3eb09d99	0.34495237
98	0x3ebcb85c	0.36859405
99	0xbeb8d1b8	-0.36097503
100	0xbe98313b	-0.2972506
101	0xbe4388dc	-0.19095176
102	0xbe693e2c	-0.22777623
103	0xbcd2b808	-0.025722519
104	0xbe196292	-0.14979008
105	0xbdf023ac	-0.11725554
106	0x3ca8c221	0.02060038
107	0xbd11d8b4	-0.035607055
108	0x3df1c596	0.11805265
109	0x3e212d71	0.15739991
110	0x3ea38f15	0.319451
111	0x3eb53607	0.35392782
112	0x3e8742d8	0.26418185
113	0x3ecd7bd5	0.4013354
114	0x3ef3632a	0.47536594
115	0x3eda6fcb	0.42663416
116	0x3f13ecb2	0.57783043
117	0xbe97f6c5	-0.29680458
118	0xbed4d5d6	-0.41569394
119	0x3ba594b1	0.005053126
120	0xbdb457bf	-0.08805799
121	0xbe873da9	-0.2641423
122	0xbb939439	-0.0045037535
123	0x3cc4a1ad	0.024002874
124	0x3e617e8d	0.22020932
125	0x3d985f8a	0.07440098
126	0xbda884d7	-0.08228462
127	0xbe8f1618	-0.27946544
128	0xbe1810d6	-0.14850172
129	0xbbf5cfaf	-0.0075015645
130	0xbe629dcc	-0.22130507
131	0xbe098cf6	-0.13432679
132	0xbd6d6e22	-0.05796636
133	0xbe48861b	-0.19582407
134	0xbdbb736a	-0.09152873
135	0xbdc731a6	-0.097262666
136	0xbe17ec01	-0.14836122
137	0xbd83751f	-0.064188235
138	0x3d7cefd8	0.06175217
139	0xbdaeed5f	-0.08541369
140	0xbcf5d5f8	-0.030009255
141	0x3d1931de	0.037401073
142	0x3dd5631a	0.10419293
143	0x3d25ac23	0.040447365
144	0x3dd7c8e4	0.10536364
145	0x3e155ebf	0.14586924
146	0x3e25f504	0.16206747
147	0x3e3bb1ba	0.18329516
148	0x3e30c92c	0.17264241
149	0x3e0be0d3	0.13659982
150	0x3ed6e51f	0.4197168
151	0x3ea52576	0.32255143
152	0x3e93156a	0.28727275
153	0xbd946f96	-0.07247846
154	0xbe3112cf	-0.17292331
155	0xbd3c077a	-0.045905568
156	0xbeb33578	-0.3500173
157	0xbe9fd98a	-0.31220657
158	0xbe157986	-0.14597139
159	0xbe11e7c4	-0.14248568
160	0xbe346bc0	-0.17619228
161	0xbd2fee55	-0.0429519
162	0x3e119e8c	0.14220637
163	0x3e56b2c7	0.20966636
164	0x3e3c679f	0.18398903
165	0x3e8c51b1	0.27406076
166	0x3e6d8de8	0.23198664
167	0x3e250414	0.16114837
168	0x3e604974	0.2190302
169	0x3e0cf7cd	0.13766403
170	0x3ce89ed9	0.028396057
171	0x3da4bd78	0.08043951
172	0x3d51f564	0.051259413
173	0x3d43097d	0.04761647
174	0x3df3aeab	0.1189855
175	0x3e09917a	0.13434401
176	0x3df7c62c	0.12098345
177	0x3eba3869	0.36371163
178	0x3e780667	0.24221192
179	0x3e4736cc	0.19454497
180	0x3dfe149c	0.12406275
181	0x3e1f98cf	0.15585636
182	0x3d46e370	0.048556745
183	0xbe15d180	-0.14630699
184	0x3d0b7723	0.034049165
185	0x3d129502	0.035786636
186	0xbe389941	-0.18027212
187	0x3e1e2452	0.15443543
188	0xbcb8fe25	-0.022582123
189	0xbe250f46	-0.16119108
190	0xbd4d2a54	-0.050089195
191	0xbe30c23f	-0.17261599
192	0xbe1a712b	-0.15082233
193	0xbe459f5d	-0.19299074
194	0xbe9d05b6	-0.3066842
195	0xbe5e1b39	-0.21690072
196	0xbd3e53f2	-0.046466775
197	0xbe2dc4f2	-0.1696966
198	0x3d0fe401	0.03512955
199	0x3ddebc1c	0.10875723
200	0xbe0e6ea9	-0.13909401
201	0x3da58e3f	0.08083772
202	0x3e7b96a3	0.24569182
203	0xbc9ff285	-0.019524822
204	0xbd76a6ab	-0.06021754
205	0x3b9295af	0.00447341
206	0xbdb252d2	-0.08707203
207	0x3e4e8af2	0.20170191
208	0x3ea91a1a	0.33027726
209	0x3e67c85c	0.22635025
210	0x3e203577	0.15645395
211	0x3ea3aead	0.31969205
212	0x3e9c3fa7	0.30517313
213	0x3e116142	0.14197257
214	0x3ea5594a	0.32294685
215	0x3e09ce5f	0.1345763
216	0xbd0aedcc	-0.033918187
217	0xbe10f432	-0.14155653
218	0xbe22ae88	-0.15886891
219	0xbdbaef85	-0.09127716
220	0xbdae9be3	-0.08525827
221	0xbcf8f79b	-0.030391505
222	0xbd443642	-0.047903307
223	0xbe129135	-0.14313205
224	0xbe5be76d	-0.21475
225	0x3d5dc834	0.054146007
226	0x3df43423	0.11924007
227	0x3e996c6b	0.2996553
228	0xbecf933d	-0.4054202
229	0xbf0c69be	-0.5484885
230	0xbcc6de39	-0.024275886
231	0x3de6e31f	0.11273789
232	0xbeaf214c	-0.3420509
233	0x3f0c5ccf	0.54829115
234	0xbf153925	-0.5829032
235	0xbec7c06b	-0.3901399
236	0xbdd373ff	-0.10324859
237	0xbf1aec52	-0.60516846
238	0xbf01312a	-0.50465643
239	0xbe9a4467	-0.30130312
240	0xbecf2ad4	-0.40462363
241	0xbec21a14	-0.3791052
242	0xbd963cd9	-0.073358245
243	0xbd66e7f7	-0.056373563
244	0x3bf6ee49	0.00753573
245	0x3d287d1e	0.041134946
246	0xbd83f7e0	-0.06443763
247	0x3d0b3abf	0.03399157
248	0x3dcdf2e2	0.10056092
249	0x3d32849f	0.04358351
250	0x3e1eeb57	0.15519463
251	0x3e525499	0.20540084
252	0x3d972861	0.073807485
253	0x3e060d7e	0.13091084
254	0x3e665fb8	0.22497451
255	0xbe425472	-0.18977526
