model-weights.pth (torch, 807897 bytes, 3 tensors)

clstm.cell_list.0.conv.weight f4 [256, 87, 3, 3]
000000 79 f3 21 be a8 c7 10 be ce 3e e7 bd 46 53 f5 bd
       -0.15815534 -0.14138663 -0.11291276 -0.11978774
000010 f9 29 fb bc 84 7a 1a bd b2 38 0a bd 8d 48 d7 bc
       -0.030659663 -0.037714496 -0.033745475 -0.026279712
000020 2d 43 bc 3c 80 a5 2d be 97 6f 21 be 6d b0 34 be
       0.02298125 -0.16957664 -0.15765224 -0.17645426
000030 9e 5c 1e be 1e d1 2b be be 7c 0f be d5 05 05 be
       -0.15465018 -0.1677899 -0.14012429 -0.12990506
000040 ca be 1d be a3 b2 e9 bd 88 13 b2 be b8 89 ad be
       -0.15404812 -0.114110254 -0.34780526 -0.33894134
000050 f1 85 a9 be f4 88 a9 be 66 ff 9a be ce b3 ac be
       -0.33110002 -0.331123 -0.3027298 -0.3373093
000060 cf d3 6d be fa 1b 7f be 4f 60 93 be 1d 9c 5a bd
       -0.2322533 -0.24913016 -0.28784415 -0.053371537
000070 03 6d 61 bd 6b 20 8f bd 39 3b 44 bd f4 e9 65 bd
       -0.055035602 -0.06988605 -0.04790804 -0.05613132
000080 e4 26 7b bd 5a fa 82 bc 3e 4d 65 bd 8a 70 82 bd
       -0.061316386 -0.015988518 -0.055981867 -0.063691214
000090 e2 08 50 bd f8 36 1e bd eb da 7a bc df 9b 6d bd
       -0.05078972 -0.03862664 -0.015310983 -0.05800998
0000a0 d8 0d b6 bb c6 cd 4b bd 58 76 d4 bc 0e b7 fe bc
       -0.0055558495 -0.049756788 -0.025935337 -0.031093147
0000b0 70 fc 91 bc 98 32 ea 3d 24 87 f0 3d 94 25 1e 3e
       -0.017820567 0.11435431 0.11744526 0.15444022
0000c0 37 0d ea 3d 31 a4 15 3e 38 fc 3f 3e 8c 88 70 3e
       0.11428302 0.14613415 0.18748558 0.23489588
0000d0 61 d9 24 3e ec dd 72 3e 90 26 d3 bd ff d4 a0 bd
       0.16098548 0.23717469 -0.103100896 -0.07853126
0000e0 a3 49 0f be 12 2a c7 bd be 01 ca bd 39 eb 07 be
       -0.13992934 -0.09724821 -0.098636135 -0.13273324
0000f0 30 cf ad bd 57 78 ec bd 66 e5 a8 bd 9d 60 e6 bd
       -0.084867835 -0.115463905 -0.08246879 -0.11248896
000100 31 58 00 be 26 77 18 be f1 5c c4 bd 4d d7 1b be
       -0.12533642 -0.14889202 -0.0958804 -0.1521885
000110 c0 33 e4 bd e0 9c f4 bd 40 32 0a be 1f 90 19 be
       -0.11142683 -0.11943984 -0.13495731 -0.14996384
000120 ff e6 85 bd 09 6c ad bc 84 95 a7 bd 7a 53 92 bd
       -0.065382 -0.02116968 -0.08182815 -0.07144828
000130 c4 18 3f bc c1 47 83 bd 40 41 81 bc 3f 90 e2 bc
       -0.011663619 -0.0641017 -0.015778184 -0.027656673
000140 97 f4 99 bd e2 d7 40 bd c1 ca ac bd 7e 21 a6 bd
       -0.07517355 -0.047080882 -0.0843711 -0.08111857
000150 81 b7 13 bd 5d e1 9b bc 41 c2 8f bc 6f c1 99 bd
       -0.036063675 -0.01902836 -0.017548682 -0.07507598
000160 99 19 98 bd 03 bf 8b bc db 32 97 bd 61 af 05 bd
       -0.07426757 -0.017058855 -0.07382747 -0.032637957
000170 3b 44 04 bd e2 66 4d bc ae 02 90 bd d3 66 9b bd
       -0.032291632 -0.012536736 -0.07031761 -0.075879715
000180 c7 e7 0d bc 99 84 62 bd 88 88 ac bc 75 46 b2 3b
       -0.008661217 -0.055302236 -0.021061197 0.005440528
000190 9c 0a 88 3b 87 23 90 bc c8 19 e6 3c c1 cd de bc
       0.0041516554 -0.017595066 0.028088465 -0.02719772
0001a0 03 52 66 bb 22 b0 1a 3b 6d 87 f5 bc 53 96 a3 3b
       -0.0035144098 0.0023603518 -0.029971803 0.0049922853
0001b0 6e c1 88 3d c5 ba 9e 3d 65 c7 76 3d a5 eb 58 3c
       0.06677519 0.07750467 0.06024875 0.013239776
0001c0 db cf 92 3c 30 0b a0 3d d5 27 80 bd e2 bc ac 3b
       0.017921379 0.07814634 -0.06257597 0.00527154
0001d0 36 89 53 3d 4e 28 9d bc 4e 78 6c bb ed d1 0b bd
       0.051644526 -0.019184258 -0.003608245 -0.034135748
0001e0 76 6d 1b bb 44 63 01 3c 3d 0b 1b bd ce 5c 53 ba
       -0.0023716367 0.007897202 -0.037852515 -0.000806284
0001f0 2d 61 8e bc 21 24 ae ba b1 fd 16 bd b7 06 30 3c
       -0.017380321 -0.0013285914 -0.036863033 0.010743788
000200 d5 e7 5a 3c 0f da bb 3c b2 07 30 3d 53 fa a7 bb
       0.013360937 0.022931127 0.04297609 -0.0051262765
000210 ae aa 0a bc 7e d6 a2 3a f9 21 c2 3c f1 25 ae 3d
       -0.008463545 0.0012423543 0.02369784 0.085033305
000220 5a 59 e1 3d 96 6a ef 3d 89 17 0b 3e a3 1f 04 3e
       0.110033706 0.116902515 0.13583197 0.12902693
000230 ac d6 00 3e e4 9f e4 3d d0 4a 06 3e bb 48 a4 3d
       0.12581891 0.11163309 0.13114476 0.08021685
000240 9d 7e 26 be 7b 54 1c be 3a 50 15 be 69 e2 89 bd
       -0.16259237 -0.15266602 -0.14581385 -0.067326374
000250 0a ff 09 be b0 96 ce bd 0d be dd bd 13 cd b5 bd
       -0.13476196 -0.10087335 -0.10827265 -0.088770054
000260 eb 57 1a be d6 dd a6 bc 82 a4 90 bb cf 96 2b 3d
       -0.150726 -0.020369451 -0.004414142 0.04189187
000270 84 64 d7 3c f7 87 78 3d 45 97 0d bc 9d 3a 5e 3d
       0.026293047 0.06067654 -0.0086420225 0.054255117
000280 c9 be 80 3c b7 4a 03 3c 1a e8 65 be 8d 74 5b be
       0.015715973 0.008013419 -0.22451821 -0.2143118
000290 5e 8d 5b be 21 ed 3d be dd ad 46 be 77 6e 51 be
       -0.21440646 -0.18547489 -0.19402261 -0.20452295
0002a0 0e e5 62 be 49 4a 3e be 42 f1 66 be bd 2a 5d bd
       -0.2215769 -0.18583025 -0.2255297 -0.053995837
0002b0 9f e7 34 bd 9e 65 86 bd 97 be 73 bd 99 18 3a bc
       -0.044166204 -0.06562351 -0.059507933 -0.011358404
0002c0 ad ed af bd 05 86 5c bd cd 01 7b bd 64 de cb bd
       -0.08590255 -0.05383875 -0.061281014 -0.09954527
0002d0 4f b2 f9 bc c8 0e 41 bd 49 e2 fe bc 24 7c 43 bd
       -0.030480532 -0.047133237 -0.03111376 -0.04772581
0002e0 81 9e 20 bc d1 ca 6d bd ca 0b 8a bd 7e df a3 bd
       -0.009803415 -0.05805475 -0.0674053 -0.08001612
0002f0 8d 38 3e bd be 4f 91 bf 73 62 87 bf b9 f7 d9 bf
       -0.04644065 -1.135246 -1.0576919 -1.7028724
000300 80 0a 98 bf 13 43 80 bf d5 e5 9d bf 7c 04 8f bf
       -1.1878204 -1.002047 -1.2335764 -1.1173244
000310 ae 11 80 bf 34 28 6b bf 5d 61 8d bf 06 77 56 bf
       -1.0005395 -0.9185822 -1.1045338 -0.83775365
000320 a4 78 c8 bf ac a8 a9 bf ad 80 40 bf c2 06 8a bf
       -1.5661817 -1.32546 -0.75196344 -1.0783312
000330 f8 ff 8c bf ff 09 42 bf fd 09 70 bf 31 f4 aa 3d
       -1.1015615 -0.757965 -0.9376524 0.08347357
000340 1c fa 1c 38 82 25 38 3d 90 31 7e 3d 61 05 5d 3c
       3.742623e-05 0.044957645 0.062058985 0.013490052
000350 6f b7 95 3d 2f e9 4e 3d fd a8 aa 3d 5d 7f 69 3d
       0.07310378 0.05051535 0.08333013 0.05700623
000360 23 00 d3 3c b0 c1 b1 3d a0 b6 b7 3b 7b 80 25 3d
       0.025756901 0.08679521 0.0056064874 0.04040573
000370 1e b2 19 3d e3 92 02 3d 38 46 08 3b 0d ee 02 3d
       0.03752338 0.031878363 0.0020793807 0.031965304
000380 2b 60 45 3d 62 36 2b 3e 3e 40 38 3e 4c ac 35 3e
       0.048187416 0.16719964 0.17993256 0.17741507
000390 97 5b 08 3e 00 13 48 3e d5 2d 65 3e 3d 7c 29 3e
       0.13316189 0.19538498 0.22380765 0.165513
0003a0 c6 be 5f 3e 11 3e 64 3e 24 9a 14 be a2 52 3a bd
       0.21850118 0.22289301 -0.14511925 -0.04548896
0003b0 d9 f1 80 bb 32 19 7c bd d6 2d 79 3b 76 b9 3e 3d
       -0.0039350805 -0.061547466 0.0038021705 0.046563588
0003c0 2f 7f 94 bd eb 91 28 bd 05 56 07 3e 46 b1 54 3d
       -0.07250821 -0.041154783 0.13216408 0.051926874
0003d0 6d c1 ed 3c 81 66 8d ba 99 9f 4d 3d 97 53 c9 3d
       0.029022897 -0.0010787995 0.050201032 0.098303966
0003e0 98 1a 77 3d e5 2d 9a 3c 6b fe 7c 3d 7d 96 a0 3c
       0.060328096 0.018820712 0.06176607 0.019603008
0003f0 57 e1 64 3a fd 98 1b bd c5 53 1e bd a6 8c f9 3b
       0.0008731088 -0.037987698 -0.038654108 0.0076156436

clstm.cell_list.0.conv.bias f4 [256]
000000 64 20 fd b9 06 62 bb ba 8b 30 75 3d 5d 99 bf 3d
       -0.00048280053 -0.0014296181 0.059860747 0.093554236
000010 b9 18 83 ba c8 1f aa bc f0 83 f3 3d e2 c9 07 bd
       -0.0010001875 -0.020767108 0.118903995 -0.033151515
000020 e2 63 58 3d 60 00 96 3d 12 4e 8e ba a6 f8 2a bb
       0.05282963 0.0732429 -0.0010857007 -0.0026088147
000030 1c e2 82 ba 92 ec 82 3d 2a 11 b4 3c 4b 4c bc 3d
       -0.0009985599 0.063927785 0.02198084 0.09194239
000040 e7 f6 cc 3d 08 a4 a3 3b c4 2a 89 bd 21 a1 83 3c
       0.100080304 0.0049939193 -0.0669761 0.016068043
000050 2c f1 2e 3d 40 47 2f 3c 4d c9 8e 3d 0d 5d 39 3d
       0.04271047 0.01069814 0.06971989 0.045254756
000060 5f 1f ac bc 57 73 83 3d 66 38 22 bc 8f 64 63 3c
       -0.021011053 0.06418484 -0.009901142 0.0138789555
000070 a7 18 9e 3b be e6 6c bc b0 93 61 3d 04 44 9e 3a
       0.004824716 -0.01445931 0.055072486 0.0012074714
000080 32 26 18 3d 16 12 8c bc 53 f0 4e 3c fd 11 39 3d
       0.0371458 -0.017098468 0.01263054 0.04518317
000090 2d b7 b8 3c fb d0 66 bc b4 b5 59 bc 1e 8d 05 3d
       0.022548283 -0.014087911 -0.01328795 0.032605283
0000a0 aa a6 d5 3c 06 72 90 bc ca ce b3 3d e9 2c dd bb
       0.026080448 -0.017632496 0.08779676 -0.0067497385
0000b0 ba da 60 bc bf fa 55 bd b9 2e 39 3c c6 93 79 3c
       -0.0137240235 -0.052241083 0.011302643 0.015232986
0000c0 a5 c2 71 3d 12 a6 27 bd 02 49 04 3c 19 95 2a 3d
       0.059023518 -0.04092986 0.008074047 0.041646097
0000d0 79 89 af 3a 0f 7f af 3d 00 e8 d1 3c a9 8e 2e 3d
       0.001339241 0.085691564 0.025623322 0.04261652
0000e0 fd 1e 54 3d a2 2b 67 bb 2b 13 bd 3c 53 80 a5 3d
       0.051787365 -0.003527381 0.023080429 0.080811165
0000f0 cd d7 ce 3d 4a 7e 9d 3d 37 a7 8c 3d 62 59 39 bd
       0.100997545 0.07690103 0.06867831 -0.045251258
000100 12 c5 9f 3d bd 80 1e bc 75 e4 26 bc 93 64 98 3c
       0.0780126 -0.009674248 -0.010186304 0.018602645
000110 be ef df bc 1b b3 a8 3c d7 03 75 3d 3a 92 0b bd
       -0.027335998 0.020593217 0.059818115 -0.034075
000120 d6 84 4a bb 80 c2 3d 3c cf 55 f3 3c b6 2a 3a 3b
       -0.003090193 0.011582017 0.029704003 0.0028406805
000130 0f 1f 34 3d 10 99 03 bd 2a 30 92 bb 0f 97 50 3d
       0.043974932 -0.032128394 -0.004461308 0.05092531
000140 9f fd 8b 3d 12 66 63 bd 71 d6 d1 3b 32 4f dd bc
       0.06835484 -0.055517264 0.0064037372 -0.027015302
000150 13 dc b1 3d 39 37 39 bd dd b3 fe bc c2 f9 8a 3c
       0.08684554 -0.04521868 -0.031091625 0.016964797
000160 fa 0a d0 3c c0 cd ec 3b 9c bd 98 bc bf d1 c6 bb
       0.025395859 0.0072266757 -0.0186451 -0.006067484
000170 08 b3 2f 3d 22 e7 93 bd ac 24 ff bd 74 d6 81 3d
       0.042895347 -0.072218195 -0.124581665 0.06339732
000180 7b fd 87 3b 58 26 25 bd 03 20 e3 3c d1 70 56 bc
       0.0041500903 -0.04031977 0.027725225 -0.013088421
000190 8b ba bd bc ba 9b 41 bd 3d b1 2e 3e 39 e6 0a bd
       -0.02316024 -0.047267653 0.17059799 -0.033910964
0001a0 99 9f 48 3b 80 cf 79 3d 9b 83 00 3c 80 d5 0a 3d
       0.0030612706 0.060988903 0.007843877 0.033895016
0001b0 23 cb 79 bd b6 01 6e bc 0e 12 11 bd 31 d9 d6 bc
       -0.060984742 -0.014526775 -0.03541761 -0.026226612
0001c0 82 5c f7 bc 41 66 1e 3d c4 3e aa bc ef 54 23 bc
       -0.030195478 0.038671736 -0.020781882 -0.00996898
0001d0 19 50 12 bd 67 03 bc 3c 42 2c 2b 3d 0d 92 4c 3d
       -0.03572092 0.022950841 0.041790254 0.049943972
0001e0 15 bf 97 3c 86 9c 96 3d a0 0d 7a 3d d6 77 b2 3c
       0.018523732 0.07354073 0.06104815 0.021785658
0001f0 08 f1 f0 bc 71 98 51 3d af 1a 99 3c 24 db 86 3d
       -0.029411808 0.05117077 0.018689482 0.065847665
000200 52 23 ad 3c b7 13 12 bd 7c 9a 0e 3c 5e 96 0c 3d
       0.021135006 -0.035663333 0.008703824 0.03432309
000210 06 e3 62 ba 79 5c 94 bd 2b d6 18 3d 98 b8 eb bc
       -0.0008655045 -0.072442 0.03731362 -0.028774545
000220 43 6d fe 3c ca 26 2f 3d 1d 9f 46 3d 07 28 25 3d
       0.03105796 0.0427616 0.048491586 0.040321376
000230 40 b2 05 3e f4 39 26 3d d1 c6 37 bd b6 ac 9d bc
       0.13056278 0.040582612 -0.04486734 -0.019247394
000240 5f 32 be 3c d8 15 94 3c 71 cf d3 bb 4f b4 9e 3d
       0.023217378 0.018076822 -0.006463938 0.07749235
000250 58 a5 f2 3c 56 7e da 3a 56 da 34 3d b7 6b 97 3d
       0.029619858 0.0016669731 0.044153534 0.07393592
000260 e7 68 97 3c fe ab d0 3d 06 4d 49 3d 26 02 02 3c
       0.018482639 0.10189055 0.04914572 0.007935083
000270 db 87 4c 3c 17 6e e7 3d 7b d7 33 bc cb 89 67 bd
       0.012483562 0.11300295 -0.0109766675 -0.056527894
000280 1d 09 c2 3d cf 26 a5 bc 6d 29 1d 3c 4a 86 2a 3d
       0.094743945 -0.020160107 0.009592396 0.041631974
000290 d2 be 43 3d 48 cb 59 39 42 ae 70 3d c1 02 2f 3d
       0.047789402 0.00020770461 0.058759935 0.042727236
0002a0 bf d4 a2 3d e0 79 52 3d f2 23 b7 3d c8 8d 61 3d
       0.07950734 0.05138576 0.08942403 0.055066854
0002b0 b4 f2 89 3d 9b 12 aa bc 49 35 1e bd 28 fe 45 3d
       0.06735745 -0.020760825 -0.038625035 0.048338085
0002c0 34 57 45 3d 1d 66 91 bc a4 f4 13 bc b4 53 ba bc
       0.048178867 -0.017748887 -0.009030495 -0.02274499
0002d0 8e 3d 51 bb 41 dd 57 3d 81 6c 9f 3d ba b3 f9 3d
       -0.0031927559 0.05270124 0.07784367 0.12192483
0002e0 2e a9 3e 3a b6 b9 b6 3d 6a 78 2f 3d 13 af 9b 3d
       0.00072731345 0.0892214 0.042839445 0.07601752
0002f0 4b 19 a8 3d dc 66 98 3b 65 6f 8c 3d bd 1b 9d bc
       0.08207949 0.0046509337 0.06857184 -0.019178266
000300 1c bb c6 bc 91 32 81 ba 70 91 a7 bc c2 f5 83 bb
       -0.024259143 -0.0009856989 -0.020455092 -0.0040270993
000310 98 47 60 3d 78 f4 21 bd 0e 52 3e 3d 1a fa 43 bc
       0.054755777 -0.039539784 0.046464972 -0.011961484
000320 68 b9 1a 3c 12 0b 5d bd 0b 61 5b 3d dd 7a a8 bb
       0.009443618 -0.053965636 0.053559344 -0.0051415996
000330 71 2d 12 3d 80 6c 13 bd 46 80 3e bd b1 99 81 3d
       0.035687868 -0.035992146 -0.04650905 0.063281424
000340 99 05 9a bd 74 ef 16 3d a6 a9 96 3d 7a 86 f6 bc
       -0.07520599 0.036849454 0.073565766 -0.03009342
000350 2e 88 d6 bc 8a 12 38 3d 03 96 7a bd f9 c7 18 bd
       -0.026187982 0.044939555 -0.06117822 -0.037300084
000360 53 8a a2 bc 0f 1a 7c 3c ed 26 54 bc 61 dc b9 3c
       -0.019841349 0.015387072 -0.012948734 0.022688093
000370 d8 96 e9 3c c7 8a 84 bc 22 11 64 bd f1 23 64 3a
       0.02851431 -0.016179455 -0.0556804 0.00087028655
000380 9a 33 91 3c 46 f4 4a 3d 8a 24 89 bc 54 c0 0c bd
       0.0177248 0.049549364 -0.016741056 -0.034363106
000390 df b8 f4 3c 9b be 09 bd 9c ef 34 bd 81 a5 04 3d
       0.02987331 -0.03362904 -0.04417382 0.0323844
0003a0 9e 84 f6 bc e4 f3 88 3c e7 91 73 bc f6 ec 35 bc
       -0.030092534 0.016717859 -0.014866329 -0.011103859
0003b0 e1 62 5b bd 46 3d 85 bd dc a6 d0 bc 30 9b c1 3b
       -0.053561095 -0.065058276 -0.02547019 0.0059083924
0003c0 ea ca 69 3c b0 c8 4c bd a7 b7 81 bc 24 28 b3 3c
       0.01426957 -0.049996078 -0.015834643 0.021869726
0003d0 a8 de 7a bd 60 7a 31 3d 5a e7 04 bd f2 4f 97 bc
       -0.061247498 0.043329597 -0.032447197 -0.018470738
0003e0 21 46 05 bd 28 18 43 3d 6f da c3 3c f4 39 2a bd
       -0.032537583 0.04763046 0.023907868 -0.041559175
0003f0 e5 04 31 bd fb aa 8d bb 70 64 54 bc bd 38 b9 bd
       -0.04321756 -0.004323361 -0.012963399 -0.09044025

head.0.weight f4 [1, 64, 3, 3]
000000 9c 72 8e bc e0 6c 08 bd 48 9b 10 3d a9 e5 fd 3c
       -0.017388634 -0.033306956 0.035304338 0.0309933
000010 b7 82 07 bd 72 48 fd 3c 82 fb d4 3c aa 75 f0 3a
       -0.033083644 0.030918334 0.025998835 0.0018345613
000020 bd 29 e0 3c 83 0e 4f be 17 6f 42 be 71 d1 05 be
       0.027363652 -0.2022038 -0.1898769 -0.13068177
000030 1f 34 1c be 4f f6 c3 ba 3a 21 a5 3c b1 2d 6d be
       -0.15254258 -0.0014950725 0.020157445 -0.23161961
000040 8f 1c a7 bc e7 92 9f bd 17 b6 ff 3d 5e 8a c2 3d
       -0.02039936 -0.07791691 0.12485903 0.09499048
000050 17 60 fe 3b 28 32 40 3e 82 3f 1e 3e 41 4c 82 3d
       0.0077629196 0.18769133 0.15453914 0.063622005
000060 b3 f0 ba 3d 6f 1c f6 3d f2 56 94 3d f9 62 d1 3d
       0.09127941 0.12017142 0.07243146 0.10223956
000070 0f ee 16 bd cc 05 c3 bd a3 77 39 3e 6e 9d 55 3e
       -0.036848124 -0.0952259 0.18112044 0.20860836
000080 ae 95 7b bd 1d 7f b6 3e a4 6d a3 3e 61 54 01 3c
       -0.061422043 0.35643855 0.31919587 0.007893653
000090 67 a3 ab bc d5 77 08 bd da 5c ce bc 7f 62 4a bd
       -0.02095194 -0.033317406 -0.02519076 -0.04941034
0000a0 07 b1 f4 bc 0f 34 a3 bd 02 aa db bd 41 ca 9d bd
       -0.02986957 -0.07968914 -0.10725786 -0.077045925
0000b0 27 73 f4 bc ed d7 66 3e 6a 6e 80 3e a4 fb 41 3e
       -0.029840065 0.22543307 0.2508424 0.1894365
0000c0 af 7f 57 3e c5 26 39 3e 1c 17 17 3e 53 2b 27 3e
       0.21044801 0.18081196 0.1475491 0.1632512
0000d0 a5 d5 03 3e 77 e0 cf 3d 9f f3 e8 3c 20 00 89 bc
       0.12874468 0.10150235 0.02843648 -0.016723692
0000e0 ce 6b 19 3e 5d 42 06 be 93 9c c2 bd b8 48 19 3d
       0.1498253 -0.13111253 -0.095025204 0.037422866
0000f0 4d d1 1b be c0 a1 9b 3c d8 76 72 3b 1c 28 3e 3d
       -0.1521656 0.018998027 0.0036997106 0.04642497
000100 99 ac 29 bd 5a 68 85 3d 25 03 1e 3d dc b8 9a bd
       -0.041424368 0.06514044 0.038577218 -0.075547904
000110 fd fa 99 3d e4 a0 93 bd 4a 5e 8f bc fc fc 41 bd
       0.07518575 -0.07208422 -0.017501015 -0.047360405
000120 71 fe 8b 3e d6 49 02 3d 24 53 84 bc e2 98 12 be
       0.2734256 0.031808697 -0.016152926 -0.14316133
000130 f4 c1 71 be 12 d3 33 be 1d 97 83 be cf 16 ab be
       -0.23609143 -0.17560986 -0.25701228 -0.3341584
000140 ef 03 67 bd 22 f6 9b 3d cb 30 c6 3d 25 af cd 3d
       -0.056400236 0.076153055 0.09677275 0.10043172
000150 c7 5b b3 3d b5 46 ef 3d d5 b0 f5 3d f2 7d e6 3d
       0.087577395 0.11683408 0.11996619 0.11254491
000160 5a df 2a 3e 1f a0 05 3e ec 6d 8e be 28 47 5e be
       0.16686764 0.13049363 -0.2781824 -0.21706831
000170 6a c6 a8 bd 73 d3 58 bd 42 3d 86 bd ab 8d 05 3e
       -0.082409695 -0.05293603 -0.06554653 0.13042323
000180 9f ea 79 3e 4a 38 7d 3e 03 29 e2 3e 33 80 bf bd
       0.24405907 0.24728504 0.44171914 -0.09350624
000190 a0 12 fa bd 50 2d ff bd 17 31 b9 bd f6 a4 18 be
       -0.12210584 -0.124598145 -0.09042566 -0.14906678
0001a0 75 62 12 be e9 0a f2 bd 72 61 3f be 68 d1 0e be
       -0.14295371 -0.11818487 -0.18689516 -0.1394707
0001b0 34 f9 d2 bd b4 3b e6 3c 2b f0 35 3d f7 13 db bc
       -0.10301438 0.02810464 0.044418495 -0.026742918
0001c0 8e 19 0c be 7b 58 d9 3d 96 f8 b9 bb 9a 3f 90 bd
       -0.13681623 0.106125794 -0.0056753857 -0.07043381
0001d0 80 f2 93 3e a4 8d 1e 3c 4b f2 ab bd 91 64 1e 3c
       0.2889595 0.009677324 -0.08395823 0.009667532
0001e0 33 7e d7 bd 69 44 25 be 9b e4 14 bd a4 20 6a bd
       -0.105221175 -0.16139378 -0.036350828 -0.057160035
0001f0 85 ab a0 bd 98 db 0b 3d 10 d1 40 3e 1f d0 3a 3e
       -0.07845215 0.034144968 0.18829751 0.18243454
000200 d0 b4 10 3e 51 25 3d 3d f0 06 9e 3d 24 26 1d bd
       0.14131474 0.046178166 0.07716167 -0.03836645
000210 01 d3 bc 3d 94 92 c8 3d 15 ea 0b 3e 09 bc 4e be
       0.09219933 0.097935826 0.13663514 -0.20188917
000220 a9 c3 09 be 16 b0 31 be da 7b 4c be 29 54 39 be
       -0.13453545 -0.17352328 -0.1996912 -0.18098511
000230 d8 e6 59 be ac 20 e5 bd 22 2a a8 bd 6c 1a 03 be
       -0.21279466 -0.11187872 -0.08211161 -0.12803048
000240 aa 1e 95 be 8b 24 a9 be ad a2 29 be cf 05 9b 3e
       -0.29124957 -0.33035693 -0.16565962 0.3027787
000250 8f 36 3a bd 93 58 9f 3d 1e 2c cf 3e 26 05 c7 3d
       -0.045462187 0.07780566 0.40463346 0.09717779
000260 7d ec 27 3e 79 4b 72 3e 7a f9 91 3e 9b f8 95 3e
       0.16398807 0.23661603 0.28510648 0.29291233
000270 e2 8c 88 3e 54 7b 51 3e ee 2e a3 3e 22 90 b5 3e
       0.26669985 0.20457202 0.31871742 0.35461527
000280 ee 7d 1a 3e 48 41 39 3e fb 55 94 bc 5b 3f be bd
       0.15087101 0.18091309 -0.018107405 -0.09289428
000290 5a 3f aa bd d5 58 45 bd 25 09 d4 bd 59 b7 7c bd
       -0.083128646 -0.04818042 -0.10353307 -0.06169829
0002a0 76 e2 ba bb 0a 8d 0a be 56 62 01 be 77 cd ce bd
       -0.005703266 -0.13530365 -0.12635168 -0.10097783
0002b0 84 f6 fe bc 69 b4 c7 bd 5d ce a7 bd 07 86 a2 bd
       -0.031123407 -0.097512074 -0.081936575 -0.0793572
0002c0 99 b7 d9 bd 5b 5e d8 bd 85 2f 2d bd 69 32 d2 bc
       -0.106307216 -0.10564872 -0.042281646 -0.025658803
0002d0 89 e1 5b be 87 0d f5 3d 63 e2 8d 3e 44 f1 b9 be
       -0.21472754 0.11965471 0.27711782 -0.36316884
0002e0 76 27 2f be 0e 01 2b bd 90 ba c8 be c7 0f 9e bd
       -0.17104897 -0.041749053 -0.39204836 -0.07717853
0002f0 61 1c 09 3e f8 47 8f 3d 01 ca 64 3e 4c 9d 5f 3c
       0.13389732 0.06996149 0.22342683 0.013648342
000300 d1 08 f4 3d 94 ce 78 3e f3 9b 0e 3e 11 e6 5c 3e
       0.11915744 0.24297553 0.13926677 0.21572138
000310 cc 96 ed 3d c3 f1 b0 bb eb ca cd 3e 80 66 08 3f
       0.11601028 -0.005399914 0.40193877 0.532814
000320 95 f1 9e 3e 72 37 15 bc 10 b7 64 be f0 ba 1a 3d
       0.31043687 -0.0091074575 -0.22335458 0.037775934
000330 03 57 1e 3e a8 c6 76 3b 6a 93 2a 3c 3d 15 6b 3e
       0.1546288 0.003765503 0.010411123 0.2295732
000340 36 6e a1 3e a9 6b 0c 3e a7 c9 0c bd 64 ff 73 bc
       0.31529397 0.13712944 -0.034372 -0.014892433
000350 8d 70 9b 3d ae d2 6e 3e 8e 86 f2 3c 75 08 c2 be
       0.07589827 0.23322555 0.029605176 -0.37897077
000360 d6 02 ad bd 66 33 4d bd e1 41 b1 3d 99 05 14 be
       -0.084478065 -0.050097845 0.086551435 -0.1445526
000370 84 4e bc bc 6e 80 60 3d e1 83 bf bd 6c 45 96 bd
       -0.022986658 0.05480998 -0.09351326 -0.0733746
000380 d8 7c 74 3b 9b d0 e4 3d de f2 36 3e e6 52 13 3e
       0.0037305858 0.11172601 0.17866084 0.14387092
000390 96 dc 48 3e 03 d6 1c 3e 80 7f e6 3d 5f 7d 13 3e
       0.19615397 0.15316014 0.112547874 0.14403294
0003a0 1f 18 26 3e 04 91 ff 3d 76 67 03 bd e5 0f 8c bd
       0.16220139 0.124788314 -0.03208109 -0.06838969
0003b0 ae 1f a8 bd e5 f7 ec bd 68 d4 18 be 9a f0 9e bd
       -0.082091674 -0.1157072 -0.14924777 -0.07760735
0003c0 e0 73 d0 bd 15 b7 c8 bd c8 d9 09 be cf 9a 39 be
       -0.101783514 -0.09800545 -0.13461983 -0.18125461
0003d0 ad ca 0b 3e 46 21 46 3d 67 7f 6d bd 44 8d b2 3d
       0.13651533 0.048371576 -0.05798283 0.087183505
0003e0 c1 11 59 3e f0 6a 9c bc eb 76 d2 3c db 0a 88 3c
       0.21198179 -0.01909396 0.02569147 0.016606739
0003f0 07 b7 02 3e a6 1b 99 3d 9a b8 78 3c 1c 77 41 3e
       0.12765132 0.07475977 0.015180731 0.18893093
