model-weights.pth (torch, 807897 bytes, 3 tensors)

clstm.cell_list.0.conv.weight f4 [256, 87, 3, 3]
00000000: 256e 9b3e 8a47 7b3e d5f1 333e ee33 a43e
00000010: 2d78 9b3e a942 413e 94ba bd3e 247d 8a3e
00000020: ac2b 383e 50f4 06be 2f06 d0bd a994 0bbe
00000030: e4c5 b9bd 5930 e5bd 5307 02be afad 88bd
00000040: cd8c ddbd fbcf efbd b974 913d bce0 ae3d
00000050: 5b6e 613d f127 103e fb91 d13d dcd0 5b3d
00000060: d4f0 f23d 12f1 023e 3c32 9c3d 1ff8 c0bd
00000070: d366 dbbd e5e9 8ebd 6b65 b5bd 6cc2 a9bd
00000080: 0a68 a0bd 126e 8abd 4b19 dbbd c22f 34bd
00000090: 0622 50bd 6e39 61bd 04bf 8fbd 3786 60bd
000000a0: d613 cebc db90 eebc 22f0 92bc b7d9 833c
000000b0: c23b 0ebc 3c44 0d3e 9c00 ba3d a60f 073e
000000c0: 38b3 773d 9b54 843d 9cd4 e53d 26a7 333d
000000d0: b869 7a3d df3a c33d 9bbe 80bd af62 b2bd
000000e0: 1fb3 54bd 658e b9bd b70b f4bc 1bbd 82bd
000000f0: 22da a5bd f10e 09bd ab62 86bd fdb1 adbd
00000100: 3d8f dfbd d485 10be 43c9 f9bd 7cca 16be
00000110: b697 0bbe 3740 2fbe 686f 25be bfd1 2abe
00000120: 1ff7 c7bc 407e 11bd cd0a 03bd 0276 ba3b
00000130: 0365 2abd 2667 19bd 64ba 0fbd d9fc a0bc
00000140: 27cf 7abd 4791 c4bc 5719 20bd 58f0 75bd
00000150: b530 593c 4b74 1dbd 9e26 3dbd d8e9 1abd
00000160: 5a27 8a3b 73c7 5dbd 2b27 a2bd 0cd4 fbbc
00000170: 4da3 56bd fd7c 20bd bf72 c2bc b069 66bd
00000180: 451c 43bd 68fc 0bbd f143 77bd 49fc 62be
00000190: 33db 35be 3d27 4ebe cce7 43be 1bc6 3abe
000001a0: c763 69be 3c00 7bbe ce56 6bbe 4cde 75be
000001b0: 4503 48be a9ed 19be 0968 48be ada7 1fbe
000001c0: 700b 23be 6567 2abe ed71 37be 0b26 07be
000001d0: bf29 3cbe c0e2 a0bc 0a4f e8bc 018d 15bd
000001e0: e0d1 78bc a546 4e3c 9b58 35bd 4963 5dbc
000001f0: 13dc 34bd 4348 a5bc b755 3b3d 38f5 243d
00000200: 9046 263a 5915 9c3d 93a9 273d b414 973d
00000210: af5d ad3d 1e3a 563d 59cc 813d d876 26bd
00000220: f7db df3b 10e9 fbbc d2b4 0cbd f7c9 78bc
00000230: 8687 a83b 4efc 66bc 1fcd 2bbd 21ba 02bd
00000240: 8081 a53d c640 aa3d e36d 0a3d 97ff 523d
00000250: ba6c 213d a09e 963d f041 853d 89d8 613d
00000260: ac48 203d 3a86 4b3f 04c6 493f 23c0 5c3f
00000270: 87b6 4e3f 470c 4f3f 7784 553f 42b0 4b3f
00000280: bb78 433f 68f2 513f 2fee 79be 9d8c 58be
00000290: 8de2 60be bf84 45be 1dfe fdbd 63a5 41be
000002a0: 56ff 29be bdf3 1ebe cc74 f3bd bc37 8c3d
000002b0: 4831 bf3d f7d6 893d 0852 a03d 7e0a b33d
000002c0: 7e1b 853d 9268 b73c c004 2f3d e360 ac3d
000002d0: 0c2a 17be 2b83 24be 5eb1 37be cc97 23be
000002e0: ab1a 35be fde3 2dbe 7c04 34be ab87 30be
000002f0: 1866 2abe c6a5 7abf cebf 22bf 5d86 79be
00000300: e4c1 34bf 098d 2dbf 858c 2abf 49a7 44bf
00000310: a7fa 08bf 4556 8bbf f89c 18bf 0687 26be
00000320: d40b 863e 0f26 e9be 7de0 c8be 2ab8 83be
00000330: ef81 16bf 30c1 d8be c28b 45bf 2287 e0bd
00000340: 9325 c3bd b39b f9bd c128 acbd c6d4 adbd
00000350: a0c6 84bd c742 68bd 7614 2ebc 7313 50bd
00000360: 83fb 2a3d 9765 4f3d 5902 393c 7e20 553c
00000370: 48af 383b faf9 2b3d 23a2 9b3c 0c3d eb3c
00000380: d435 563d 4d73 c83c 146e d63b e40d ba3c
00000390: a413 3aba aee3 fcbc 32c2 09bd b9bf d0bc
000003a0: 8423 4d3c 98ce b23c e647 b8bd 313f 11be
000003b0: a7e5 ffbd ec21 acbd b83a d8bd 5d8c a8bd
000003c0: 895e 8bbd fbea bbbd 4cbe 86bd d938 9ebd
000003d0: c45d 5fbd 8647 6fbd d7e5 cbbd 8c6c b6bd
000003e0: 4dd2 dcbc f6a5 26bd e3e7 0ebd 3513 6ebc
000003f0: cc71 1d3d 7d6c 923d 568b bc3d a56f fb3c
0.3035747 0.24539009 0.1757272 0.3207087 0.30365124 0.18873085 0.3705641 0.270486
0.1798541 -0.13179135 -0.101574294 -0.13630928 -0.09070948 -0.11190862 -0.12698106 -0.066737525
-0.10817871 -0.11709591 0.07102341 0.085389584 0.055036884 0.14077736 0.10232922 0.05366598
0.118623406 0.12787274 0.07626769 -0.09422325 -0.107129715 -0.069782056 -0.088572346 -0.08289036
-0.07832344 -0.067592755 -0.106981836 -0.043990858 -0.050813697 -0.05498641 -0.07018855 -0.054815497
-0.025155943 -0.029121807 -0.01793677 0.016095025 -0.00868124 0.1379556 0.090821475 0.13189563
0.06047365 0.0646145 0.11222193 0.043860577 0.061135978 0.09532713 -0.06286355 -0.08710229
-0.051928636 -0.09060363 -0.029790742 -0.06383725 -0.08098246 -0.033461515 -0.06561788 -0.08481214
-0.109159924 -0.14113551 -0.12196591 -0.14725679 -0.13632092 -0.1711434 -0.1615578 -0.16681574
-0.024409829 -0.035520792 -0.031992722 0.005690337 -0.04160024 -0.037451886 -0.035089865 -0.019651817
-0.061232712 -0.023995055 -0.039086666 -0.060043663 0.013256242 -0.038440984 -0.046179406 -0.037820667
0.004216117 -0.054145288 -0.07917627 -0.03074076 -0.05240183 -0.039181698 -0.023736356 -0.056253135
-0.04763438 -0.03417626 -0.06036753 -0.22166552 -0.17759399 -0.20132156 -0.19131392 -0.18239634
-0.22791968 -0.24511808 -0.22982332 -0.24010581 -0.19532497 -0.15032066 -0.19570936 -0.15591307
-0.15922332 -0.16641004 -0.17914553 -0.13198106 -0.183753 -0.019639373 -0.028358001 -0.036511425
-0.015186757 0.012590085 -0.044273954 -0.013512441 -0.04415519 -0.020176059 0.04573604 0.04027292
0.0006342912 0.07621259 0.040933203 0.07376996 0.08465134 0.05230152 0.06337804 -0.040640682
0.006831642 -0.030750781 -0.03435213 -0.015184871 0.005143109 -0.01409824 -0.041943666 -0.031915788
0.08081341 0.08313136 0.033796202 0.05151328 0.03941033 0.07354474 0.06506717 0.055138145
0.039131805 0.7950169 0.7881777 0.8623068 0.80747265 0.8087811 0.8340525 0.79565823
0.76356095 0.8201051 -0.24407266 -0.2114739 -0.21961422 -0.1928892 -0.12401984 -0.18910746
-0.16601309 -0.15522666 -0.118875116 0.06846568 0.093355715 0.067304544 0.07828146 0.087422356
0.06499384 0.02238873 0.04272914 0.08416917 -0.14762133 -0.16065662 -0.17938754 -0.15975875
-0.17685954 -0.16981502 -0.17579836 -0.17239253 -0.16640508 -0.979092 -0.6357392 -0.24367662
-0.70608354 -0.6779333 -0.66620666 -0.76817757 -0.53507465 -1.0885702 -0.59614515 -0.16262445
0.261809 -0.4553685 -0.3923377 -0.25726444 -0.5879201 -0.4233489 -0.7716638 -0.109632745
-0.09528651 -0.121879004 -0.08406211 -0.08487849 -0.06483197 -0.05670431 -0.010624995 -0.0507998
0.041743767 0.050633993 0.011292064 0.013008235 0.0028180648 0.041986443 0.018998211 0.028715633
0.05229743 0.024469042 0.006543884 0.022711702 -0.00070982636 -0.030870285 -0.033632465 -0.025482045
0.012520675 0.021827027 -0.089980885 -0.14184262 -0.124949746 -0.084049076 -0.10558075 -0.08229897
-0.068051405 -0.09175678 -0.06579265 -0.077256866 -0.05453278 -0.05841782 -0.09955948 -0.089074224
-0.026955748 -0.040685616 -0.034889113 -0.0145309465 0.038438603 0.07149599 0.09206264 0.030692885

clstm.cell_list.0.conv.bias f4 [256]
00000000: a32f bc3c ae0c ba3c 904c f33d 7554 483b
00000010: f501 063d 6f78 133d 54e6 5e3c de96 3ebb
00000020: 7bf9 c23c 1dbd 1dbd 080c 12bc 7d71 4dbb
00000030: 26bf ba3c 1413 573d 7639 863c 1fbc 2dbc
00000040: 4976 e13b 2a7f 233c e556 b6bb 4bcf 063d
00000050: 7259 473b ddd8 c13c b25d 563d 1ae0 a33d
00000060: 89f0 5e3d 49b4 f43c 267b 733c a8b6 9839
00000070: 8d88 013d 2023 a7bc c67a 2cbc c950 00bd
00000080: 22a9 d83c c3fc 973d e36a 55bd a2ff 0fbc
00000090: 3011 3ebb 036b 88bd fdd3 2b3c 2640 d0bc
000000a0: b005 8f3c 0b36 4cbd c700 883c 848f 65bc
000000b0: 224a 29bd b4fc 8fbd 1885 68bc f2aa 9abc
000000c0: 9187 803d ea15 8f3c 9ec4 81bd e3e1 7eba
000000d0: b158 07bd a12a 833d 2dc8 453d 99c6 9c3d
000000e0: e02f 253d 0376 df3d b47d c73b 33f9 0f3c
000000f0: b1e6 103e 4192 c03c 42d5 01bd a141 1dbd
00000100: 6949 ff3c 2c67 3fbd 5505 64bc 9891 31bb
00000110: 4938 65bd 4d96 4fbd b405 163d 4806 3abd
00000120: ed00 f4bc 2f9d 123c 1376 5f3d 5c2d 923c
00000130: fb07 3cbd 2693 943c 4eef 0d3d eb5c 68bc
00000140: 449a ae3c faf0 92bb aa3f 89bb 5073 ebbc
00000150: 57fa f53c 85ae 89bc 81c5 88bc f36d 3f3d
00000160: 5bdc 8bbc 9049 d8bc 457c 023c 3b69 333d
00000170: 26c3 293a d9b5 e0bc 2077 223d a9fd 823d
00000180: 127e 9b3d 3020 eb3c 7187 503d c54c 683c
00000190: 0e96 04bd b9bc 363d e250 04bc 2828 043c
000001a0: 67fc 563d a597 a3bc 8cbd a13d a001 843b
000001b0: e839 a23a faca 2c3d ebf2 4fbb f84d 2ebd
000001c0: 4c73 863c 9405 d03c c538 fe3c a30c 7e3c
000001d0: 19c1 a7bc 268a 023c 688e a43b 5b88 67bb
000001e0: 307b 763c cf8d 233d c17d 3d3d 84f4 babc
000001f0: 6d50 573d 871f 2f3d 8058 a73c 8f34 d23c
00000200: beb0 ad3d e523 f8bc 4ad4 cc3c 167b 873d
00000210: e0ae cb3c eca9 873d c7b0 ef3b 4350 08bc
00000220: 679c 3c3d 7b91 e3bc 5982 773c 96bd 883c
00000230: 712d 86ba cffd 8f3d 4cd5 893c 6042 5dbc
00000240: 264e 233c d8a3 8a3c 2056 c53c 0e62 86ba
00000250: c506 49bd e68b 503c 6fa1 803c 8141 b73d
00000260: 6bd2 ebbc 565d 963d 7da9 09bc e583 7a3d
00000270: 347b 8dbc 8e60 f1bc 27cf 5b3c a508 2e3d
00000280: 1446 593d 43f7 d83d dec6 b83c 1364 49bd
00000290: 7ad4 293c f7ab 9a3a b56e fdbc d67d 2f3d
000002a0: 61d4 a03d 7859 ba3c 0eb0 afbc d73d b33c
000002b0: de31 2c3c 5fdf f3bc 1e70 583c 186e 38bd
000002c0: dec4 473c 9214 483c 9aa5 193c 956f 09bd
000002d0: c4b4 3d3d 553f 6c3d 1da1 013c 23ce ed3d
000002e0: 3e5f 003e 337f b8bc 3d6b 28bd 272b 1a3e
000002f0: 9c47 12bc ff63 783d 9b4c 29bd c9c0 353c
00000300: aa55 0e3d f55f 043c f027 a9bc a6b6 5ebd
00000310: 15f9 723c d669 eabc 9245 dbba 4cc0 513b
00000320: 8a1b f8bc de2d a23c eec6 1bbd baa6 ec3c
00000330: d6f6 a33b 5d90 033d dfb6 81bd 7b1c 6cbd
00000340: cff3 49bd 5798 1ebd e772 afbc 73a1 3e3d
00000350: 9e41 233d b490 80bb 796b 833c fbd9 5f3d
00000360: acad 5e3d 45ca 46bc b099 fa3b d2bf 9b3c
00000370: b281 553d 7ddb 28bd 10d5 c0bd c102 2ab9
00000380: 2f68 853c 82c9 e03c e243 243b 02d3 2a3b
00000390: 92f7 8bbc 072e 143d 2940 463d cc90 9539
000003a0: 9122 38bd 8db2 373d 4f33 d0bd 5dcf 4abc
000003b0: 47e1 e5bc bd0f 8ebc 7bf0 823c bc1a 763d
000003c0: 4065 943c 73e8 e3bc 0786 23bd d8d1 1bbc
000003d0: 4d38 ae3d de84 7fbd 3342 a93d 8bdd be3c
000003e0: 33d0 cfbc 2ae5 9ebd a1ef aabd c12f ef3c
000003f0: cdd2 b23d 0b8c a8bd 557b f93b 9928 8fbc
0.022971934 0.022711124 0.118798375 0.0030567918 0.03271671 0.036003526 0.013604719 -0.0029081623
0.023800602 -0.03851043 -0.008914001 -0.0031348162 0.022796225 0.05250843 0.016384821 -0.010603934
0.006880556 0.009979049 -0.005564558 0.032912534 0.0030418304 0.023662979 0.05233545 0.08001728
0.05442861 0.029871123 0.014860904 0.0002912779 0.031624366 -0.020402491 -0.010527318 -0.031327043
0.026447836 0.07421257 -0.05210389 -0.008788975 -0.0029001944 -0.06661036 0.010487554 -0.025421213
0.017458767 -0.049856227 0.016601933 -0.014011268 -0.041330464 -0.07030621 -0.014191888 -0.018880341
0.06275857 0.017466504 -0.0633633 -0.0009722991 -0.033043567 0.06404615 0.048286606 0.07655067
0.04032886 0.10911181 0.006087983 0.008787441 0.14150502 0.02350724 -0.03169752 -0.038392667
0.031162934 -0.04672925 -0.013917287 -0.0027094837 -0.05596188 -0.050680447 0.036626533 -0.045416147
-0.029785598 0.008948608 0.054555964 0.017843895 -0.04590605 0.018136572 0.034652047 -0.01418231
0.021313794 -0.004484293 -0.0041884976 -0.028741509 0.030026598 -0.01680685 -0.01669574 0.046735715
-0.017072847 -0.026402265 0.0079641985 0.043801527 0.0006475918 -0.027430462 0.039664388 0.06396038
0.075924054 0.028701872 0.050910417 0.0141784595 -0.032369666 0.044613574 -0.008075925 0.008066215
0.052486803 -0.01996977 0.07897481 0.004028514 0.0012376877 0.04218576 -0.0031730484 -0.042554826
0.0164124 0.025393285 0.03103293 0.0155059425 -0.020477818 0.0079675075 0.005021859 -0.0035329077
0.015044019 0.03993016 0.046262506 -0.022821672 0.052566934 0.042754676 0.020427942 0.025659828
0.084809765 -0.030290553 0.025003571 0.06615274 0.02486366 0.06624207 0.0073147747 -0.008319917
0.046047594 -0.027779331 0.015106761 0.016691964 -0.0010236931 0.07030832 0.01682534 -0.013504595
0.0099673625 0.01692383 0.02408892 -0.0010252611 -0.04907872 0.012728667 0.015701978 0.08948041
-0.028786859 0.07342021 -0.008402226 0.06116094 -0.017270662 -0.029464986 0.013416088 0.042488713
0.053045347 0.105940364 0.022555765 -0.049167704 0.0103656 0.0011800517 -0.030936578 0.042844616
0.07853008 0.02274774 -0.021446254 0.021880073 0.010509936 -0.029769598 0.013210325 -0.04502687
0.012192933 0.012211936 0.009377861 -0.03355368 0.04631497 0.057677586 0.007911948 0.11611583
0.12536332 -0.02252159 -0.041117895 0.15055524 -0.008928206 0.06064224 -0.041332822 0.011093327
0.034749664 0.008079519 -0.020648926 -0.054373406 0.014829894 -0.02861492 -0.0016729108 0.0032005487
-0.03028657 0.019797262 -0.03803151 0.028888095 0.0050037904 0.032120097 -0.06333708 -0.05764435
-0.04930478 -0.0387195 -0.021417094 0.04654069 0.0398575 -0.0039235 0.016042458 0.05465124
0.054364845 -0.012133186 0.0076477155 0.019012365 0.05212564 -0.041224945 -0.094156384 -0.0001621349
0.01628503 0.027439836 0.0025064875 0.0026065712 -0.017085824 0.036176708 0.04840103 0.00028527377
-0.04495484 0.044848014 -0.10166036 -0.012378541 -0.028061522 -0.017341489 0.01598381 0.06008409
0.018114686 -0.027820801 -0.03992274 -0.00951048 0.08506832 -0.06238257 0.082645796 0.023299
-0.025367832 -0.07758553 -0.08346487 0.029197576 0.08731613 -0.08229836 0.0076135793 -0.017475413

head.0.weight f4 [1, 64, 3, 3]
00000000: e5b2 0abd 31ec b93c c822 543d 1d8a e5bb
00000010: 9c04 3b3d d499 7a3d bcc0 0dbd d038 c13c
00000020: 2ce6 023e b935 b63d f988 1c3e 7603 ca3d
00000030: 5fa7 d53d 18bc 0d3e 1acd 283e c946 ce3d
00000040: 23a4 ce3d c9b5 0e3e 7348 693e 2bbc 4d3e
00000050: 8167 733e f2c3 5a3e 8751 1c3e d71e 083e
00000060: cae3 703e 7386 273e 0b56 f53d e09f 10be
00000070: acf8 d9bd a240 10be 15ea 0dbe 60bd 80bd
00000080: 5f4f ecbd de6d 8ebe 82b0 4bbe 9f9a 33be
00000090: b87b 21bd 6366 343d 8f5b b83b 42c4 b8bd
000000a0: 9b48 60bd 16ab a33c 7706 163d 59e8 78bd
000000b0: b21d 1abc 0cc8 5e3e 4b6b 683e ef7d 663e
000000c0: 01a2 8b3e 0283 373e cf03 413e 05bd a03e
000000d0: 51d8 843e 9832 8e3e 3e6a ea3a 6d91 b0bd
000000e0: ddb0 d0bd 3fed a0bc ffc3 6c3d 98f0 41bd
000000f0: ab55 ba3d 0e05 913d 605f 10be 5ffd 993d
00000100: d41f 233e ab89 693e 4057 0a3e 6d7b 3e3e
00000110: fa4f 583e 5f0b cd3d 9bf7 743e 68c7 703e
00000120: a64a 76bd 8545 1cbe 90b4 1abe dfe0 1cbe
00000130: 9ec9 4bbe c1fa 4abe 4392 6ebd 4900 f9bd
00000140: d673 37be 7716 08bd bfef d53a b80f d4bc
00000150: 2b11 bb3d 9e0e 893d fae0 5d3d b27b ef3d
00000160: 8f8a d73d 3cf7 903d fc79 7ebe 2a34 03be
00000170: 8496 14bc ff2b 3bbe 7ee3 043c 1beb 603e
00000180: 5f1e a7bc 55fb 3f3e f6d4 d03e ad9e 08bd
00000190: 8231 b53d bb6d 683d 7f2c 0ebd b19a ab3c
000001a0: 6189 12bb 4326 60bd d141 ae3c 8599 453c
000001b0: abc3 ba3d 8935 df3d 5129 443d c207 f23d
000001c0: 0da8 f73d 57bd 843d b283 e83c d50e 813d
000001d0: 4bd7 bd3d 3067 e83c bd39 65bd dbe9 ef3d
000001e0: 184d abbd 8229 89be 8db1 7abb aca6 df3c
000001f0: 61e2 56be ad1b 123d 571d 0fbe 61e9 563e
00000200: a266 de3d eab8 a7be 17e3 dc3d ba6e 813d
00000210: 98ac 58bf 9335 94be 2255 89be c4b0 9e3d
00000220: c834 0c3e 93f3 063e 046f 7a3c dbe1 123e
00000230: faa0 023e 1de8 c43c bb2b 5b3d 489d 9a3d
00000240: 70b0 143d a44f 1a3d 773e 5f3d d213 d83c
00000250: 0ccc 9fbc ef60 ddbd d188 e5bc 8c8f 2c3d
00000260: 3a1d 06be 1654 c43d 327e 003e 8bb1 bd3d
00000270: 6012 1a3e 0e9d b63b 2f4e 943d c675 823a
00000280: 2e1c d83d e87f 1f3e 2339 23bd 3d51 c7bd
00000290: 166d 05bd b5ea 94bd 973d c5bd abdd c3bc
000002a0: e14b 4fbc 786e 84bc be7a a8bc 3e59 de3d
000002b0: 033b 113e a5cf d43d 0f07 243e 87f0 f23d
000002c0: 2cba 133e a30e ce3d 6c03 2f3e 8ff1 9a3d
000002d0: 3805 d13c b7b3 7d3d 4265 d23d d810 093e
000002e0: be53 453e 522b 243e df32 333e 3dc2 413e
000002f0: 7485 2f3e 0216 04bf aa6a 89be 1886 47be
00000300: d8a9 bdbe 303b 4dbd 20d5 20bc aaf9 69bd
00000310: b189 7abc 1eeb 3fbe 9b30 e6bc 6d71 91bd
00000320: 3696 dabb 3dfe a5bd bf8d f8bd 1d02 ccbd
00000330: 4839 e7bc 1d27 aebd 2bbd 81bd 2c5a 3cbe
00000340: 9e28 9abe f385 65be c1fe e7be 5dd2 1ebf
00000350: 8671 0fbe a239 46be 6076 c9be 5a59 efbd
00000360: 33f9 2d3d e3d0 893d 4180 333e 4a70 5e3e
00000370: 8e70 143e fc25 763e 03ef c23e a495 ae3e
00000380: c3a8 b83e 4e9e c4bd e4e9 3fbe ed0d 1fbe
00000390: 88d9 acbd 15fc 89be 48a6 15be 8153 41bd
000003a0: bf33 05be 3df0 473d 9e6c 94bd 4afb 3abd
000003b0: 25b0 09bd 78f4 02be 7dba d9bd dfb6 8bbc
000003c0: 7692 68bd 9b06 f8bd d7f5 abbd 2b8d 6b3c
000003d0: af93 a2bc 51db e2bc b2a6 6ebd a30c 7bbd
000003e0: cf6d d2bd 9e9e 2bbd 856d 97bd f39f 1e3a
000003f0: 16da 32bd c011 98bc ec77 45bd 87b8 8c3d
-0.033862013 0.022695633 0.051790982 -0.00700499 0.045658693 0.06118186 -0.034607634 0.02358666
0.12783116 0.088969655 0.15286626 0.09863941 0.10432314 0.13841283 0.1648449 0.10072095
0.100899 0.13936533 0.22781543 0.20091312 0.23769952 0.2136381 0.15265475 0.13293014
0.23524395 0.16359882 0.11979302 -0.14123487 -0.106431335 -0.14087155 -0.13858826 -0.062861204
-0.11538576 -0.27818197 -0.19891551 -0.17539452 -0.039424628 0.044042956 0.005626149 -0.09021808
-0.054756742 0.019979041 0.03662726 -0.06076846 -0.009406494 0.21756 0.22697179 0.22508977
0.27272037 0.1792107 0.18849109 0.3139421 0.25946286 0.27772975 0.0017884446 -0.08621488
-0.10189984 -0.019644378 0.057804104 -0.04734859 0.09098371 0.07081042 -0.14098883 0.0751903
0.1593011 0.22806422 0.13509846 0.1860177 0.21124259 0.100119345 0.23922579 0.23513567
-0.060129784 -0.15260895 -0.15107942 -0.15320157 -0.1990113 -0.19822218 -0.058244955 -0.121582575
-0.17915282 -0.03322455 0.001632206 -0.025886402 0.09134134 0.06692241 0.054169632 0.11693515
0.10524475 0.07078406 -0.24851221 -0.12812868 -0.009069089 -0.18278502 0.008110879 0.21964686
-0.020400224 0.1874822 0.40787476 -0.03335445 0.088473335 0.056745272 -0.034710404 0.020947786
-0.0022359716 -0.05472399 0.021271618 0.012060528 0.09119352 0.10898883 0.047890965 0.11817886
0.120926 0.06481426 0.02838311 0.06301657 0.092695795 0.028369516 -0.055963267 0.11714526
-0.08364314 -0.2678948 -0.0038252801 0.027301155 -0.20984794 0.035670925 -0.13976036 0.20987464
0.108594194 -0.32758266 0.107855015 0.063199475 -0.8463836 -0.28947124 -0.26822764 0.07748559
0.1369201 0.13178854 0.015285257 0.1434397 0.1275672 0.024036461 0.0535085 0.0754953
0.036301076 0.037673607 0.05450293 0.026376639 -0.019506477 -0.10809504 -0.02801934 0.042129084
-0.13097087 0.095863506 0.1254814 0.09262379 0.15046072 0.0055729216 0.07241475 0.0009953312
0.1055225 0.15576136 -0.03984941 -0.09732292 -0.032574736 -0.07271329 -0.09630888 -0.02390941
-0.012652368 -0.016165957 -0.02056634 0.10856865 0.14182667 0.103911676 0.16018318 0.11862283
0.14426488 0.100613855 0.17091149 0.07565605 0.025515184 0.061938968 0.1027322 0.13385332
0.19270226 0.1603215 0.17499875 0.18921752 0.17140752 -0.5159608 -0.2683919 -0.19484746
-0.37043643 -0.050105274 -0.009816438 -0.057122864 -0.015291617 -0.18742034 -0.028099349 -0.071017124
-0.0066707386 -0.08105133 -0.12136411 -0.099613406 -0.028225556 -0.08503554 -0.06334909 -0.18393773
-0.30109113 -0.22414379 -0.4531155 -0.6203974 -0.1400815 -0.19357923 -0.39348125 -0.11686964
0.042473983 0.06729295 0.17529394 0.21722522 0.14496061 0.24037927 0.38072976 0.34098542
0.36066255 -0.09600507 -0.18741566 -0.15532656 -0.08439928 -0.26950136 -0.14614213 -0.047198776
-0.13008021 0.048813093 -0.072472796 -0.045649804 -0.03361525 -0.1278857 -0.10631273 -0.017054973
-0.0567803 -0.12110635 -0.083964996 0.014376919 -0.019845812 -0.027692469 -0.05826444 -0.06129135
-0.102748506 -0.041899316 -0.07393936 0.0006051056 -0.043665014 -0.018563151 -0.04821007 0.06871133
